riem_gmm/gmm_model_64_5000.npz (npz, 27872 bytes, 3 tensors)

mu f8 [64, 4, 4]
00000000: 9f8b f129 c880 e63f 4bab c9f3 b4bd 913f
00000010: ea12 1453 8dbe e63f 08ef 32bb cbd6 6bbf
00000020: e39d fe9e 51c1 debf c7a3 ca5d 81f2 e73f
00000030: 265c 013a ec42 dd3f 0f5a 6e9e 7987 e23f
00000040: a7a3 687a 6ec4 e0bf 8ba8 7f73 e837 e5bf
00000050: ec82 3fdd 4c1b e13f 8c13 b9b9 a31c e03f
00000060: 0000 0000 0000 0000 0000 0000 0000 0000
00000070: 0000 0000 0000 0000 0000 0000 0000 f03f
00000080: 8642 928c a7d8 ecbf 500d cde9 8b30 a73f
00000090: e8a3 4bff 878d dbbf 990b 9d14 48bd c5bf
000000a0: 5dd6 aee2 72b4 db3f 3ab9 a979 ddb8 b73f
000000b0: bbd0 326e 89b1 ecbf c466 93a5 ca3e 81bf
000000c0: 4832 219f 128f 47bf 7eff 964e 4fd4 efbf
000000d0: 4bcd c26e 4c67 babf 246e bc3e bcbe e33f
000000e0: 0000 0000 0000 0000 0000 0000 0000 0000
000000f0: 0000 0000 0000 0000 0000 0000 0000 f03f
00000100: 4166 c3b7 edf2 eebf 1aee 6a29 7c0e c03f
00000110: 30b4 352d 604c cc3f 4b78 7778 a50c d4bf
00000120: 6a45 3ead a8be ca3f d52d d647 115d babf
00000130: 0d69 33cd a31e ef3f c764 5707 83be d23f
00000140: a983 d079 7387 c23f 1fa9 6101 6393 ef3f
00000150: e417 ca1b acc9 b23f 0815 5fcc 7e4a e93f
00000160: 0000 0000 0000 0000 0000 0000 0000 0000
00000170: 0000 0000 0000 0000 0000 0000 0000 f03f
00000180: bccf a918 9142 ee3f f177 79de 0f1e bebf
00000190: a3dd b9ae 3168 d3bf bfd7 0820 442b b5bf
000001a0: 8bd7 6196 5355 d0bf cccf 86a5 9fd0 d33f
000001b0: ec14 d35f ac4f edbf bd48 85bd a7e2 c3bf
000001c0: cf27 10ff 80cf c93f 5640 2ae8 a031 ee3f
000001d0: b606 70fe e2d0 d03f 5b2d 3783 8e8c e03f
000001e0: 0000 0000 0000 0000 0000 0000 0000 0000
000001f0: 0000 0000 0000 0000 0000 0000 0000 f03f
00000200: be3f f3e1 922d efbf b365 8bd1 e3a0 c73f
00000210: 375c d772 a282 c0bf d27f 4ff6 a2ed d13f
00000220: 098a aa09 fe0c ccbf c27f eadb 3017 edbf
00000230: 4695 c3b6 45ad d63f 9e86 a18d d330 e03f
00000240: 01f1 da75 4d8c aabf 0ee6 2c90 47e7 d73f
00000250: 5638 076d 4ba3 ed3f bc93 c7eb 784b e13f
00000260: 0000 0000 0000 0000 0000 0000 0000 0000
00000270: 0000 0000 0000 0000 0000 0000 0000 f03f
00000280: 4774 3ac4 bfec e13f 82ae c251 9cb9 8b3f
00000290: bec9 c236 4681 eabf fda5 838a f6ce acbf
000002a0: 3dde a0fd 8770 eabf dc3a f3ff 37c9 b43f
000002b0: dad9 f2fe 8dd6 e1bf 5ca1 1d52 f233 c8bf
000002c0: ed4f 00b5 cc91 ae3f 4cf7 5cd2 32e4 ef3f
000002d0: 35af 0039 7003 ad3f 4b8f f1ac 575a e43f
000002e0: 0000 0000 0000 0000 0000 0000 0000 0000
000002f0: 0000 0000 0000 0000 0000 0000 0000 f03f
00000300: a62b 2dfb a346 e1bf 0b9b 3099 9fa6 ea3f
00000310: 9eff 1e07 b243 bf3f 3e31 e3d3 c9b8 883f
00000320: f2a7 7786 09ec ea3f 33e3 2fca b83b e13f
00000330: cf73 b922 f7d4 a73f 0e0d 23f5 3d7d 8d3f
00000340: 2500 43e6 fea6 9bbf 2c67 4e6c 3e5e c03f
00000350: 8e3d 7993 bbb9 efbf 0adf 6bbb 7685 d83f
00000360: 0000 0000 0000 0000 0000 0000 0000 0000
00000370: 0000 0000 0000 0000 0000 0000 0000 f03f
00000380: 763d e4f2 cf26 e33f b56a 47c6 62bf e0bf
00000390: 490e fc68 dd68 e3bf 3aa3 5963 0589 c13f
000003a0: f7f1 a782 4717 e83f c5f8 5ade a40a e43f
000003b0: d547 bd8a 46e9 c93f 2485 ff44 bebf e43f
000003c0: 9377 877f 3088 d13f 2d33 c09f 407d e2bf
000003d0: 7a93 80d5 599a e83f 4c0b f252 f714 e43f
000003e0: 0000 0000 0000 0000 0000 0000 0000 0000
000003f0: 0000 0000 0000 0000 0000 0000 0000 f03f
00000400: 298e 419b 24d1 c43f b1a1 b578 6d44 b73f
00000410: aca2 898d 9270 efbf c0c4 2746 89ca bbbf
00000420: b372 721a 2068 d23f d53a 7309 b89e eebf
00000430: cf18 805c 3cf2 a4bf 888f e351 7a73 bbbf
00000440: b02a 75d4 ef33 eebf ae5b 2678 9da8 d1bf
00000450: e1fa d982 df43 c7bf d679 9113 0aba f13f
00000460: 0000 0000 0000 0000 0000 0000 0000 0000
00000470: 0000 0000 0000 0000 0000 0000 0000 f03f
00000480: 8612 7272 d182 efbf 30d7 7dcd b969 a33f
00000490: a2aa 6b6a adc1 c5bf c646 6873 d717 d63f
000004a0: 3915 98fd 6dc5 c53f bae1 1810 6455 2bbf
000004b0: 7c43 a23f a288 efbf e85a ae61 1273 ccbf
000004c0: dffc c520 f525 a3bf 706f 8bf4 1bfa efbf
000004d0: c752 6c5b fb92 79bf f501 e5ed eb7c e73f
000004e0: 0000 0000 0000 0000 0000 0000 0000 0000
000004f0: 0000 0000 0000 0000 0000 0000 0000 f03f
00000500: 80e0 3f90 9949 bcbf a5c5 3136 9e2a d3bf
00000510: 8f64 038a 6c53 eebf 2c0f f0b2 6e35 dcbf
00000520: c019 1725 74c0 ef3f be88 210b b87f b6bf
00000530: 5b50 9d11 f981 b6bf fc07 8c0c 9af5 a8bf
00000540: 0981 8c7e a229 adbf 8c0f 49bc c966 eebf
00000550: bd42 678d aaa3 d33f 84e0 424c 4597 eb3f
00000560: 0000 0000 0000 0000 0000 0000 0000 0000
00000570: 0000 0000 0000 0000 0000 0000 0000 f03f
00000580: ee83 5a48 fbeb ef3f e3c5 47e6 9303 a6bf
00000590: bbf0 6df5 1a32 acbf eacd 3774 e164 d6bf
000005a0: 0fc2 57ed 042c 923f 6484 a605 a862 ed3f
000005b0: aab5 b8f3 ed4f d9bf ed20 4571 0ec3 dcbf
000005c0: d508 4efb 9c4c b13f e610 584b 1530 d93f
000005d0: 8c12 6a2d 8656 ed3f b256 5ab1 9d9a e13f
000005e0: 0000 0000 0000 0000 0000 0000 0000 0000
000005f0: 0000 0000 0000 0000 0000 0000 0000 f03f
00000600: 6216 dd7f b44e eebf 0853 7149 0709 963f
00000610: e3b2 6d24 0f7e d43f 02a0 e3ac f8a5 823f
00000620: 98d3 3298 495d bbbf 5004 3fcf 1dc8 eebf
00000630: 0541 242c 1719 d0bf 96ef de35 879f bdbf
00000640: 7ea1 85d2 a65d d33f 4cc0 cbf7 e06f d1bf
00000650: f151 ab36 293a ed3f 4e57 e17a ef2a f33f
00000660: 0000 0000 0000 0000 0000 0000 0000 0000
00000670: 0000 0000 0000 0000 0000 0000 0000 f03f
00000680: 9a50 bbbc 40f0 eebf ca3f 5a23 f09b cabf
00000690: f1e7 c1f8 6aff c2bf 8dbd 06b8 f7da b1bf
000006a0: db96 ed77 0095 c13f cbc8 d989 5216 b13f
000006b0: 6f06 f4f6 e79f efbf b4d5 4e92 c7cf d3bf
000006c0: a596 3784 a690 cb3f f35d ec23 5b3a efbf
000006d0: 9c88 beae b06b a2bf 09ad e3e9 4d78 db3f
000006e0: 0000 0000 0000 0000 0000 0000 0000 0000
000006f0: 0000 0000 0000 0000 0000 0000 0000 f03f
00000700: fb36 165b 6ff8 e33f f0d5 88f5 4eda bb3f
00000710: c796 d712 92c2 e83f 8121 215f 123c 883f
00000720: 1d59 2f08 edf7 e8bf 97fc 56ca c4d3 c13f
00000730: 7e3c f58f 0983 e33f 1e6b 06b6 99b2 c63f
00000740: ccba 8076 8935 a5bf e5e0 aaea 0b7f efbf
00000750: e02f 6063 e7fd c53f 51b7 da85 4dc1 e43f
00000760: 0000 0000 0000 0000 0000 0000 0000 0000
00000770: 0000 0000 0000 0000 0000 0000 0000 f03f
00000780: bdf8 ace1 0336 bbbf 768d 0c7a 59cc d3bf
00000790: d2d7 777a 5b3d ee3f 284f f160 f1f7 db3f
000007a0: 0eb8 8c88 9227 ef3f 174d 498a 77de ccbf
000007b0: d9ce ab0b 4f44 a23f 39ad 1df1 adb9 933f
000007c0: 807e 54fd 43de c93f 3351 79cf e68f ed3f
000007d0: 6b48 8a60 39cf d43f c1ec 6aa4 61e1 eb3f
000007e0: 0000 0000 0000 0000 0000 0000 0000 0000
000007f0: 0000 0000 0000 0000 0000 0000 0000 f03f
0.7032204455575658 0.017325236682533867 0.7107607481599107 -0.0033983210683724598 -0.48054924513641434 0.7483527023188054 0.4572096411188248 0.5790374845844911
-0.5239784613414614 -0.6630747085412322 0.5345825501682078 0.5034960391427474 0.0 0.0 0.0 1.0
-0.9014470811399213 0.04529225567832873 -0.4305133813018629 -0.16983891493336215 0.43288871895797404 0.0926645681408659 -0.8966719772638706 -0.008420546701404581
-0.0007189598966391231 -0.9946667227704749 -0.10313871101498255 0.6170331216157519 0.0 0.0 0.0 1.0
-0.9671543683172744 0.12544204733227177 0.22108080108174155 -0.31327187313388966 0.2089434476770678 -0.10298259738754408 0.9724902160481023 0.2928779193585566
0.1447586388394744 0.9867415453893819 0.07338977507069405 0.7903436652783578 0.0 0.0 0.0 1.0
0.945625827951964 -0.1176462095404245 -0.3032345014866797 -0.08269143850415527 -0.2552079170776486 0.3096083752127441 -0.9159757491658218 -0.1553544688600307
0.20164501623395245 0.9435581716989059 0.2627494320623599 0.5171577990344461 0.0 0.0 0.0 1.0
-0.9743132031526256 0.18459747058549922 -0.12898665053828193 0.28012918523563457 -0.21914649459820648 -0.9090809149965866 0.35432570312544376 0.5059602514486021
-0.05185167373335454 0.3734911830866573 0.9261834268052194 0.5404629330702089 0.0 0.0 0.0 1.0
0.5601500351509764 0.013537617917186443 -0.8282805509136819 -0.05626650276992604 -0.8262367204360498 0.0811953544500556 -0.557440755793148 -0.18908528337056907
0.05970611295211357 0.9966062649398082 0.056666857679685746 0.6360281350903078 0.0 0.0 0.0 1.0
-0.5398731141843782 0.8328397743215147 0.122126700151965 0.012071205881874488 0.8413131357494861 0.5385402630773569 0.04654667185670968 0.014399036448941274
-0.027004225544033162 0.12787609375373543 -0.9914224510520613 0.38314598372333875 0.0 0.0 0.0 1.0
0.5984878295875393 -0.5233625290523692 -0.6065508890610057 0.13699405051309005 0.7528417159915638 0.6262993185880751 0.2024315049589506 0.648406157266582
0.27393734411259024 -0.5777896041996421 0.768841664311011 0.6275593395260812 0.0 0.0 0.0 1.0
0.16263253765929278 0.09088787266740074 -0.9824917568594933 -0.10855920756127357 0.28760531027527775 -0.956874865014323 -0.0409106123843671 -0.10723080157509746
-0.9438399457515825 -0.27591644986517394 -0.18175882233841548 1.107919765890633 0.0 0.0 0.0 1.0
-0.9847190127625971 0.03791599877778962 -0.16997306534115803 0.34520517606970846 0.1700875747921289 -0.00020853849859904327 -0.9854289286468965 -0.22226171273788187
-0.03739896798196595 -0.9992809082282132 -0.006243688453441982 0.733999218595328 0.0 0.0 0.0 1.0
-0.11049804469792157 -0.29947619717048674 -0.9476835914203025 -0.4407612559737 0.992242882196301 -0.08788633605721238 -0.08792072944680866 -0.04874879267846663
-0.05695827288423245 -0.9500473668526737 0.3068643933193405 0.8622156609990417 0.0 0.0 0.0 1.0
0.9975563443332456 -0.04299604593314734 -0.05506977315869351 -0.34990726804173156 0.01774604509950178 0.9182930097923756 -0.3955035095303524 -0.4494052988197968
0.06757527480479848 0.3935597644597365 0.9168120276450096 0.5501240219043295 0.0 0.0 0.0 1.0
-0.9471075532280333 0.0215188158584452 0.32019403989288103 0.009105627800138908 -0.1068922039583654 -0.9619282768036417 -0.25153140364365384 -0.1157154566307653
0.30259104307926765 -0.2724535388833871 0.913349730277842 1.1979822921761811 0.0 0.0 0.0 1.0
-0.966827744118308 -0.20788385130117454 -0.14841973444327963 -0.06974743120985334 0.13735967498649057 0.06674686303611847 -0.9882697890572681 -0.30955685890088636
0.21535188156047017 -0.9758735372187729 -0.035977860766494646 0.4292177948070309 0.0 0.0 0.0 1.0
0.6240765360869028 0.10879987234587651 0.7737512939463266 0.011833327797049932 -0.7802643928396581 0.13927516822693484 0.6097457706145091 0.1773254526895806
-0.04142407962387082 -0.9842586119985098 0.17181103088694183 0.6485965360968554 0.0 0.0 0.0 1.0
-0.10629295596752093 -0.30934750479556017 0.9449899093585776 0.4370082327561584 0.9735806147562032 -0.22553915264379817 0.0356774045702914 0.01926299842982113
0.20209550733214954 0.9238161136841313 0.32514795711279615 0.8712623797686306 0.0 0.0 0.0 1.0

sigma f8 [64, 6, 6]
00000000: 348b 956e 4f16 dc3f 1c8d 41b6 3414 b1bf
00000010: 242d 2484 d665 543f 053d 6a96 1f05 86bf
00000020: 5f57 e03f e34e babf c7fd d4c2 55c0 a2bf
00000030: 1d8d 41b6 3414 b1bf 39a2 94ea e64f e43f
00000040: 8130 4c99 4954 793f 9700 0680 e63b c23f
00000050: 01be fa14 cb1c 903f a975 03d9 5d79 c23f
00000060: 242d 2484 d665 543f 8130 4c99 4954 793f
00000070: 219d 667e b14c d93f 7d47 3a6b 8f78 953f
00000080: c3e9 7541 ba4d babf 19f5 cdb6 2bf9 94bf
00000090: 053d 6a96 1f05 86bf 9700 0680 e63b c23f
000000a0: 7b47 3a6b 8f78 953f f48b bca1 d217 b43f
000000b0: 5169 670d 49b9 693f a5be 3320 486b ab3f
000000c0: 5f57 e03f e34e babf 01be fa14 cb1c 903f
000000d0: c3e9 7541 ba4d babf 5069 670d 49b9 693f
000000e0: c5e5 95c0 254f ad3f 69fe c845 216e 8c3f
000000f0: c7fd d4c2 55c0 a2bf a975 03d9 5d79 c23f
00000100: 18f5 cdb6 2bf9 94bf a5be 3320 486b ab3f
00000110: 69fe c845 216e 8c3f 6ce4 2c83 8c71 b43f
00000120: 03b4 f5b3 b31f f13f 816a 7faa 4a2a c93f
00000130: c9c8 b99a 9202 b1bf a39b e473 4e15 85bf
00000140: 2c8c 2aee 909a b1bf 50e7 acae 4863 d5bf
00000150: 816a 7faa 4a2a c93f d93e d607 0bca fb3f
00000160: 2bbd ee93 1d8a 4f3f 05ab 176d a60f b83f
00000170: a7ae d945 85d8 7dbf 8e78 384c 6446 d4bf
00000180: c8c8 b99a 9202 b1bf 70bd ee93 1d8a 4f3f
00000190: 3d61 4950 0558 f23f aa92 5422 aaeb d43f
000001a0: a783 211b 904f c63f 3a95 6bf4 e673 923f
000001b0: a29b e473 4e15 85bf 06ab 176d a60f b83f
000001c0: a992 5422 aaeb d43f 7715 0de3 b249 b93f
000001d0: 029f 66e3 da5f a93f a9fe b7f1 34af 87bf
000001e0: 2c8c 2aee 909a b1bf a7ae d945 85d8 7dbf
000001f0: a783 211b 904f c63f fe9e 66e3 da5f a93f
00000200: cc86 15f6 4cde 9e3f ac1d 393d 52e2 943f
00000210: 4fe7 acae 4863 d5bf 8e78 384c 6446 d4bf
00000220: 3895 6bf4 e673 923f a9fe b7f1 34af 87bf
00000230: ac1d 393d 52e2 943f dd76 7156 f556 c23f
00000240: 1bc9 ea35 0134 e73f f90c 548d df9b bc3f
00000250: bddc 54bf 523e 87bf ec44 4ded 0ad8 933f
00000260: 08ff 9c6c 5609 c2bf e61d 6bb1 8bf0 a3bf
00000270: f90c 548d df9b bc3f 034d c0a7 834c ed3f
00000280: 501d ba7b 7db2 923f c883 1df2 ec0e c63f
00000290: 03fd 43d1 4370 88bf 8156 375e 82d0 d4bf
000002a0: c3dc 54bf 523e 87bf 531d ba7b 7db2 923f
000002b0: b947 0068 81e8 d93f 2e3c 2a1e 0114 72bf
000002c0: ee8c f735 4a2f c33f 15ae 416b 2747 55bf
000002d0: ee44 4ded 0ad8 933f c883 1df2 ec0e c63f
000002e0: 2f3c 2a1e 0114 72bf 9022 980e 9a71 a43f
000002f0: 9062 571b 0a36 77bf 93cb 354b 930c b1bf
00000300: 08ff 9c6c 5609 c2bf 02fd 43d1 4370 88bf
00000310: ee8c f735 4a2f c33f 8f62 571b 0a36 77bf
00000320: 072d 86e8 f11a b53f a616 1b92 18b3 703f
00000330: e61d 6bb1 8bf0 a3bf 8156 375e 82d0 d4bf
00000340: 18ae 416b 2747 55bf 93cb 354b 930c b1bf
00000350: a716 1b92 18b3 703f d6e2 7806 6564 c33f
00000360: 7433 ddab e262 d83f f6d5 5da9 29d6 2a3f
00000370: ce5c 5ed8 822c 7f3f 979e 2b6e 6bea a13f
00000380: d6e7 4b45 8240 b9bf a448 7352 b6fa 943f
00000390: aed5 5da9 29d6 2a3f 74c3 f5fe d6b5 db3f
000003a0: 08a4 6638 0e99 b13f 3681 b93b 5761 b43f
000003b0: 9236 f007 3565 753f e383 44bd 5872 80bf
000003c0: cc5c 5ed8 822c 7f3f 08a4 6638 0e99 b13f
000003d0: 0eb9 c54f 9784 de3f c7cd 2eed e8c3 933f
000003e0: 0b80 330b 903a 8d3f c252 8e9f 49cf 8e3f
000003f0: 989e 2b6e 6bea a13f 3681 b93b 5761 b43f
00000400: c7cd 2eed e8c3 933f 4ba6 fc75 ac70 c53f
00000410: e40c dcff 7e97 84bf f9a2 acb8 53d4 78bf
00000420: d6e7 4b45 8240 b9bf 9336 f007 3565 753f
00000430: 0b80 330b 903a 8d3f e30c dcff 7e97 84bf
00000440: e6aa 8f69 ecc9 ab3f a2f5 920c 38ad 553f
00000450: a448 7352 b6fa 943f e483 44bd 5872 80bf
00000460: c052 8e9f 49cf 8e3f faa2 acb8 53d4 78bf
00000470: a6f5 920c 38ad 553f b4cd 2e88 14e7 b63f
00000480: d81e 550c 4177 df3f a8e3 2904 b97d c13f
00000490: dbe9 ee9b 95ea af3f 2419 e9ed af09 b13f
000004a0: 0268 1158 a5fc c2bf 03bb 857c 778d a33f
000004b0: a8e3 2904 b97d c13f 3594 50d3 df10 e03f
000004c0: ae56 e950 2340 873f 1ea4 5701 3e16 ba3f
000004d0: f60a 0f11 a095 a7bf eae2 55ff 7edd b43f
000004e0: dbe9 ee9b 95ea af3f a956 e950 2340 873f
000004f0: 41f5 4c8c 32b9 e03f 246e 42b3 0879 b03f
00000500: 0179 10d2 be57 c9bf 98be 52ad 9ba5 7e3f
00000510: 2519 e9ed af09 b13f 1da4 5701 3e16 ba3f
00000520: 246e 42b3 0879 b03f b608 2044 6c92 b23f
00000530: d78e 757c cd3b a9bf b1fc 9c1d b909 9b3f
00000540: 0268 1158 a5fc c2bf f60a 0f11 a095 a7bf
00000550: 0179 10d2 be57 c9bf d88e 757c cd3b a9bf
00000560: c47b 8ab6 fdc6 bd3f 6b5b 6933 f23d 85bf
00000570: 05bb 857c 778d a33f eae2 55ff 7edd b43f
00000580: 9dbe 52ad 9ba5 7e3f b1fc 9c1d b909 9b3f
00000590: 6b5b 6933 f23d 85bf 774e d332 6253 ac3f
000005a0: 0a9e a249 f4c5 f13f 017b 2c41 a110 b0bf
000005b0: 0992 7f9a bc72 a33f cb41 478b d6ed 94bf
000005c0: 7c04 155b bb51 c7bf b870 f324 21f4 d33f
000005d0: 037b 2c41 a110 b0bf 8fb7 f274 70ef fa3f
000005e0: f628 f8c6 7439 9bbf e249 e4a4 a9e4 d23f
000005f0: ae26 10d1 de62 7b3f ef67 f13c b8a3 d0bf
00000600: 0692 7f9a bc72 a33f f828 f8c6 7439 9bbf
00000610: 52d2 425e c30a f23f 2264 cbfa 7e01 d4bf
00000620: 91eb c26f 02e9 c33f 1f22 1b5d 5011 8b3f
00000630: c941 478b d6ed 94bf e249 e4a4 a9e4 d23f
00000640: 2264 cbfa 7e01 d4bf c357 6a1a 2878 c13f
00000650: d199 a0d0 5651 a5bf 8230 8126 f078 a8bf
00000660: 7c04 155b bb51 c7bf a526 10d1 de62 7b3f
00000670: 90eb c26f 02e9 c33f d199 a0d0 5651 a5bf
00000680: c10d 7207 7a69 ab3f 7ef1 fdaa fd10 aabf
00000690: b870 f324 21f4 d33f ef67 f13c b8a3 d0bf
000006a0: 1d22 1b5d 5011 8b3f 8230 8126 f078 a8bf
000006b0: 7ff1 fdaa fd10 aabf 01c6 2fd5 737e bf3f
000006c0: 68cc a823 037f dc3f f1e1 e755 ade9 993f
000006d0: 7725 6668 24c1 903f 4a31 4604 56a1 4d3f
000006e0: 2f76 b52d 016e 9e3f 3595 0b79 e5ac 963f
000006f0: efe1 e755 ade9 993f 6099 faf2 24f8 d53f
00000700: 0893 44aa 25a6 6f3f bfb7 e6d6 be7a 93bf
00000710: 2e78 c5d3 56d3 453f 7436 571d 24cb 573f
00000720: 7525 6668 24c1 903f 0c93 44aa 25a6 6f3f
00000730: e0a2 cd89 3164 dd3f 40e3 4e3e bcc0 8fbf
00000740: 7192 a14c 04bb 793f e35e 8559 7a68 7ebf
00000750: 4631 4604 56a1 4d3f c0b7 e6d6 be7a 93bf
00000760: 3fe3 4e3e bcc0 8fbf eaad 886a a792 c33f
00000770: 0dbb 5240 b001 813f 2271 40a4 4506 64bf
00000780: 3376 b52d 016e 9e3f 1f78 c5d3 56d3 453f
00000790: 7492 a14c 04bb 793f 0ebb 5240 b001 813f
000007a0: 5f37 c40a ad19 ad3f 4ff1 5176 d366 733f
000007b0: 3595 0b79 e5ac 963f 7036 571d 24cb 573f
000007c0: e35e 8559 7a68 7ebf 2071 40a4 4506 64bf
000007d0: 4df1 5176 d366 733f 4c1b 4376 6de8 923f
000007e0: df2b 28b7 a3b4 e73f a1ac 1789 6c5c c43f
000007f0: 712f f4da e69d 9c3f bd1a 65b9 ebd9 963f
0.43886171149476927 -0.06671456765757394 0.0012449831852475246 -0.010751959588815039 -0.10276623067360678 -0.036623649628832626 -0.06671456765757396 0.634753664174304
0.0061838984445438125 0.14245301486153458 0.015734837680325246 0.14432881447184556 0.0012449831852475246 0.0061838984445438125 0.39530598968345215 0.020967713279396605
-0.10274852846297393 -0.02048176100969554 -0.010751959588815039 0.14245301486153458 0.0209677132793966 0.07848850678105618 0.0031401087573900495 0.05355286973087673
-0.10276623067360678 0.015734837680325246 -0.10274852846297393 0.003140108757390049 0.05724447227380439 0.013881931249783723 -0.036623649628832626 0.14432881447184556
-0.020481761009695537 0.05355286973087673 0.013881931249783723 0.07985761835597466 1.0702397374800519 0.196603139162864 -0.06644550588115118 -0.01029454508950584
-0.06876474203686261 -0.3341848092855928 0.196603139162864 1.736826925862195 0.0009625095770981242 0.09398880160703633 -0.007286568257409399 -0.3167963737813658
-0.06644550588115117 0.0009625095770981317 1.146489442462623 0.32688382484983924 0.17430306744338717 0.018020256679752246 -0.010294545089505839 0.09398880160703635
0.3268838248498392 0.09878080409278832 0.04955944085969401 -0.01156464922587415 -0.06876474203686261 -0.007286568257409399 0.17430306744338717 0.04955944085969398
0.030144884605198638 0.020394597040903115 -0.33418480928559274 -0.3167963737813658 0.01802025667975224 -0.01156464922587415 0.020394597040903115 0.14327875824795103
0.725098233515641 0.11175343704603681 -0.011349340881322662 0.019378824933771563 -0.14090996077901985 -0.03894459286453493 0.11175343704603681 0.9155901218786372
0.01825901096029031 0.17233049222980257 -0.011932878326204937 -0.32522639466092335 -0.011349340881322672 0.018259010960290322 0.4048160091052711 -0.0044136089005766665
0.14988067278964173 -0.0012987027121437224 0.01937882493377157 0.17233049222980257 -0.004413608900576667 0.03992921283867645 -0.005666770438857896 -0.06659813486275672
-0.14090996077901985 -0.011932878326204936 0.14988067278964173 -0.005666770438857895 0.08244239737375746 0.0040770492357233065 -0.03894459286453493 -0.32522639466092335
-0.001298702712143723 -0.06659813486275672 0.004077049235723307 0.15150130096460285 0.3810354879722617 0.00020474680485064984 0.0076108084812382525 0.03499160499432923
-0.09864057723817096 0.020487641126984216 0.0002047468048506479 0.43297362230719405 0.06874169232345662 0.0796103020488815 0.005223471786860794 -0.008030598903646385
0.007610808481238251 0.06874169232345662 0.47684271612423934 0.01930202434205144 0.014271855680306108 0.015043807203065088 0.03499160499432924 0.0796103020488815
0.01930202434205144 0.16750102768974026 -0.010054580863203495 -0.006061865841538555 -0.09864057723817096 0.005223471786860795 0.014271855680306108 -0.010054580863203494
0.054274928937805986 0.0013230368952429146 0.020487641126984216 -0.008030598903646387 0.015043807203065085 -0.0060618658415385555 0.0013230368952429155 0.0894635040738681
0.491653692286929 0.1366492529230332 0.06233661201936843 0.06655406530726232 -0.148335140230131 0.03818868060158389 0.1366492529230332 0.5020598532906947
0.011352802187654856 0.10190188915989082 -0.04606342514263943 0.08150476201798154 0.06233661201936843 0.011352802187654847 0.5226071110006744 0.06434683205082387
-0.1979902768807236 0.007482154954388108 0.06655406530726234 0.1019018891598908 0.06434683205082387 0.07254673636637929 -0.04928438324239231 0.02640427821392838
-0.148335140230131 -0.04606342514263943 -0.1979902768807236 -0.049284383242392316 0.11631761271063029 -0.010372059053379087 0.0381886806015839 0.08150476201798154
0.007482154954388112 0.02640427821392838 -0.010372059053379087 0.05532366629054491 1.1108286739707887 -0.06275375214725544 0.03798474679914327 -0.020438530207515442
-0.18218175837867878 0.3117754803513537 -0.06275375214725547 1.6834568565641097 -0.026586365360381024 0.2952064619322795 0.006686087014722437 -0.25999265624488904
0.03798474679914325 -0.02658636536038103 1.127627723891369 -0.3125913094677931 0.15554838616466474 0.013216617432946496 -0.020438530207515435 0.2952064619322795
-0.3125913094677931 0.13647939004721196 -0.04163619324417634 -0.04779768438365385 -0.18218175837867878 0.006686087014722429 0.1555483861646647 -0.04163619324417634
0.05353909817588543 -0.050910880206148854 0.3117754803513537 -0.25999265624488904 0.013216617432946493 -0.04779768438365385 -0.05091088020614886 0.12302326159240097
0.44525221330986264 0.025305469864152334 0.01636177909089073 0.0009042425158880898 0.02971650926098429 0.022143922341361495 0.025305469864152327 0.343270528110585
0.0038634048124940347 -0.01902292429593166 0.0006660627328007923 0.0014522411996610559 0.016361779090890722 0.0038634048124940364 0.45924032647466895 -0.015504332210058203
0.006281868738459027 -0.0074238566670243615 0.0009042425158880894 -0.019022924295931665 -0.015504332210058201 0.15291302396631973 0.008304001772868408 -0.002444396990553114
0.029716509260984302 0.0006660627328007907 0.0062818687384590295 0.00830400177286841 0.05683651691843638 0.004736734413310308 0.022143922341361495 0.001452241199661055
-0.0074238566670243615 -0.002444396990553113 0.004736734413310306 0.018464765875957398 0.7408007218631346 0.1590705556294312 0.027946097482569102 0.022315676870926938

pi f8 [64, 1]
00000000: 9125 d1ea c070 903f 991d 6aae 4f3c 7d3f
00000010: 7831 cd37 0131 8c3f b302 4589 28b4 a53f
00000020: 914b 48aa 20cb 913f be05 6808 c0f1 843f
00000030: 111c eacc a47b 973f 7d5e 17f6 c6c1 933f
00000040: 3a1e d77a bdb3 813f 2fa4 3ded 2cc5 8e3f
00000050: 7a13 2bd8 eb9d 8c3f 85c0 f967 70f7 933f
00000060: 8154 7651 db54 7f3f b9c3 5a0a eedc a53f
00000070: b891 a0b0 de63 853f e6c4 671a 9fb0 8c3f
00000080: 115e 0084 b2cb 843f c5f3 4ff6 8568 a23f
00000090: 9592 51fb a629 913f a5de ebda af1e 823f
000000a0: c8d4 674a f574 983f e898 f7e9 d94a 933f
000000b0: 1df2 143d e8a5 8a3f 6116 c863 89e3 873f
000000c0: 541c c440 036a 903f 5b9d 2b4f 279e 943f
000000d0: fd42 8142 c0e0 843f a141 2668 9aff 953f
000000e0: 3582 92c8 0c57 9f3f 7302 612b 7a6a 9b3f
000000f0: acf5 f93b 1ad9 a03f fa90 7cf6 9b85 903f
00000100: 6ed9 6dc8 62ae 923f fb39 2578 c66b 8d3f
00000110: 177f fb77 072a 9c3f 74cc 7a16 6315 843f
00000120: 2253 428d 47c4 8e3f cb28 cdf1 7468 843f
00000130: e689 e470 6c73 8c3f 7bd1 ed92 5fcc 9a3f
00000140: 87f4 79ba cdfa 903f 7300 7dca af8c 833f
00000150: 8ef1 74d8 c38b 913f c9ad ec43 2e8a 843f
00000160: 84c8 7dbc bed9 793f dec6 2fb2 deae 8c3f
00000170: 9763 c6ad 4d64 8f3f 45c2 2e13 2393 803f
00000180: 2ae1 bc3b 6936 863f 285d ff15 e1bf 803f
00000190: 7e6c 400f c960 823f 61c9 a74a 3770 813f
000001a0: 5598 d669 9fca 833f 884b caa3 6cdb 733f
000001b0: 05c8 927b d773 823f b256 17a1 cddc 753f
000001c0: e2d1 b049 d47d 753f 74d6 2118 aea9 903f
000001d0: 5a4e bccd cb2f 973f 9a7b 3821 aefa 8c3f
000001e0: bd54 75ab 8b19 833f 7fa4 5f17 98a8 913f
000001f0: 6772 25fc 40d8 803f 3811 766f 30c4 8e3f
0.016055120784846336 0.007137595419983178 0.013765344157626855 0.04239012408880196 0.017376432793820454 0.010226726776639047 0.02293260098170086 0.01929388882658011
0.008643608390129665 0.015024519910825955 0.013973085913116402 0.019498592706839197 0.007649285041584909 0.042701185955031425 0.010444392934069721 0.014008753770186688
0.010154146817554584 0.035953699414654795 0.01676045330931915 0.008847593182039157 0.023883659998280377 0.018840222268317414 0.013011755336827463 0.011664460523216737
0.01602940638352053 0.02013455792157735 0.01019430354077277 0.021482861143853452 0.030605506650888088 0.02677336587680874 0.03290636045583581 0.016134678763720857
0.018243354304524777 0.014365721265360945 0.027504078577179927 0.009806417583013018 0.015022810934433976 0.0099648605625088 0.013892028041088755 0.026170247404893026
0.016581739908805317 0.009545682303383018 0.017134723745799323 0.010029183814899494 0.006311173499726878 0.01400541287691531 0.015328032365504103 0.008093141577632976
0.010845968375733667 0.008178480609713448 0.008973665979331576 0.008514816251566417 0.009663815896441866 0.004847931265106527 0.009010013064060027 0.00533752750330556
0.005246953248434912 0.01627227804461602 0.022643265182593054 0.014150009526074748 0.009326068086617284 0.017244697977649267 0.008224971480268196 0.015022638703847777
